…
onnected layermodel.add(layers.Flatten())# 7th Fully Connected Layermodel.add(layers.Dense(4096,activation=&#39;relu&#39;))model.add(layers.Dropout(0.5))# 7th Fully Connected Layermodel.add(layers.Dense(4096,activation=&#39;relu&#39;))model.add(layers.Dropout(0.5))# Output Layermodel.add(layers.Dense(1000,activation=&#39;softmax&#39;))model.summary()</code></pre><pre><code>_________________________________________________________________Layer (type)                 Output Shape              Param #   =================================================================conv2d_31 (Conv2D)           (None, 224, 224, 64)      1792      _________________________________________________________________conv2d_32 (Conv2D)           (None, 224, 224, 64)      36928     _________________________________________________________________max_pooling2d_13 (MaxPooling (None, 112, 112, 64)      0         _________________________________________________________________conv2d_33 (Conv2D)           (None, 112, 112, 128)     73856     _________________________________________________________________conv2d_34 (Conv2D)           (None, 112, 112, 128)     147584    _________________________________________________________________max_pooling2d_14 (MaxPooling (None, 56, 56, 128)       0         _________________________________________________________________conv2d_35 (Conv2D)           (None, 56, 56, 256)       295168    _________________________________________________________________conv2d_36 (Conv2D)           (None, 56, 56, 256)       590080    _________________________________________________________________conv2d_37 (Conv2D)           (None, 56, 56, 256)       590080    _________________________________________________________________max_pooling2d_15 (MaxPooling (None, 28, 28, 256)       0         _________________________________________________________________conv2d_38 (Conv2D)           (None, 28, 28, 512)       1180160   _________________________________________________________________conv2d_39 (Conv2D)           (None, 28, 28, 512)       2359808   _________________________________________________________________conv2d_40 (Conv2D)           (None, 28, 28, 512)       2359808   _________________________________________________________________max_pooling2d_16 (MaxPooling (None, 14, 14, 512)       0         _________________________________________________________________conv2d_41 (Conv2D)           (None, 14, 14, 512)       2359808   _________________________________________________________________conv2d_42 (Conv2D)           (None, 14, 14, 512)       2359808   _________________________________________________________________conv2d_43 (Conv2D)           (None, 14, 14, 512)       2359808   _________________________________________________________________max_pooling2d_17 (MaxPooling (None, 7, 7, 512)         0         _________________________________________________________________flatten_3 (Flatten)          (None, 25088)             0         _________________________________________________________________dense_11 (Dense)             (None, 4096)              102764544 _________________________________________________________________dropout_8 (Dropout)          (None, 4096)              0         _________________________________________________________________dense_12 (Dense)             (None, 4096)              16781312  _________________________________________________________________dropout_9 (Dropout)          (None, 4096)              0         _________________________________________________________________dense_13 (Dense)             (None, 1000)              4097000   =================================================================Total params: 138,357,544Trainable params: 138,357,544Non-trainable params: 0_________________________________________________________________</code></pre><p>版权声明：原创,转载请注明来源,否则律师函警告</p>]]></content>
    
    
    <categories>
      
      <category>深度学习</category>
      
    </categories>
    
    
    <tags>
      
      <tag>神经网络模型</tag>
…
el.add(layers.Flatten())# 6th Fully Connected Layermodel.add(layers.Dense(4096,activation=&#39;relu&#39;))model.add(layers.Dropout(0.5))# 7th Fully Connected Layermodel.add(layers.Dense(4096,activation=&#39;relu&#39;))model.add(layers.Dropout(0.5))# Output Layermodel.add(layers.Dense(1000,activation=&#39;softmax&#39;))model.summary()</code></pre><pre><code class="lang-cpp">_________________________________________________________________Layer (type)                 Output Shape              Param #   =================================================================conv2d_25 (Conv2D)           (None, 55, 55, 96)        34944     _________________________________________________________________max_pooling2d_13 (MaxPooling (None, 27, 27, 96)        0         _________________________________________________________________conv2d_26 (Conv2D)           (None, 27, 27, 256)       614656    _________________________________________________________________max_pooling2d_14 (MaxPooling (None, 13, 13, 256)       0         _________________________________________________________________conv2d_27 (Conv2D)           (None, 13, 13, 384)       885120    _________________________________________________________________conv2d_28 (Conv2D)           (None, 13, 13, 384)       1327488   _________________________________________________________________conv2d_29 (Conv2D)           (None, 13, 13, 256)       884992    _________________________________________________________________max_pooling2d_15 (MaxPooling (None, 6, 6, 256)         0         _________________________________________________________________flatten_3 (Flatten)          (None, 9216)              0         _________________________________________________________________dense_12 (Dense)             (None, 4096)              37752832  _________________________________________________________________dropout_9 (Dropout)          (None, 4096)              0         _________________________________________________________________dense_13 (Dense)             (None, 4096)              16781312  _________________________________________________________________dropout_10 (Dropout)         (None, 4096)              0         _________________________________________________________________dense_14 (Dense)             (None, 1000)              4097000   _________________________________________________________________dropout_11 (Dropout)         (None, 1000)              0         _________________________________________________________________dense_15 (Dense)             (None, 1000)              1001000   =================================================================Total params: 63,379,344Trainable params: 63,379,344Non-trainable params: 0_________________________________________________________________</code></pre><p>版权声明：原创,转载请注明来源,否则律师函警告</p>]]></content>
    
    
    <categories>
      
      <category>深度学习</category>
      
    </categories>
    
    
    <tags>
      
      <tag>神经网络模型</tag>
…
